data.pth (torch, 14495 bytes, 6 tensors)

l1.weight f4 [8, 192]
0	0xbe3306dc	-0.17483085
1	0x3eb7c959	0.35895804
2	0xbf687b57	-0.908132
3	0xbeaab17c	-0.33338535
4	0x3d806a41	0.06270266
5	0xbf0ef192	-0.5583736
6	0xbe3390b8	-0.17535675
7	0x3fcec318	1.6153288
8	0xbd797912	-0.060906477
9	0xbd44922f	-0.047990974
10	0x3ea87b24	0.3290645
11	0xbda5048d	-0.080575086
12	0xbfbbe717	-1.4679898
13	0xbf266eaa	-0.6501261
14	0x3f1046ed	0.56358224
15	0xbe00ef52	-0.12591293
16	0xbe505b7f	-0.20347403
17	0xbe40f975	-0.1884516
18	0x3ccf4b2a	0.025304396
19	0xbe1a4940	-0.15067005
20	0xbeaacaaa	-0.33357745
21	0xbf09da63	-0.53848857
22	0xbfaa755f	-1.3317069
23	0x3f222f8d	0.63353807
24	0xbef09d60	-0.46995068
25	0x3f786eda	0.97044146
26	0x3e19513b	0.14972393
27	0x3e94e1b3	0.29078445
28	0x3ed113a2	0.4083529
29	0x3f252579	0.64510304
30	0xbe6e5834	-0.23275834
31	0x3f85add6	1.0443676
32	0xbe928913	-0.28620204
33	0xbe24f32e	-0.1610839
34	0xbddf5e50	-0.109066606
35	0x3f5ba4f7	0.8579859
36	0x3f6c8c48	0.9240155
37	0xbf7b6a01	-0.98208624
38	0x3f3adaeb	0.7299029
39	0xbff6f5f2	-1.9293807
40	0xbf34d0e0	-0.7063122
41	0xbe411cb3	-0.18858604
42	0x3f275122	0.65358174
43	0x3effc51d	0.49955073
44	0x3e0fc9b6	0.1404179
45	0xbe5e985c	-0.21737808
46	0x3f6ca189	0.92433983
47	0x3f04b946	0.51845205
48	0xbe49b708	-0.19698727
49	0x3e859b00	0.26094818
50	0xbe994a54	-0.2993952
51	0xbf37cb06	-0.71794164
52	0x3e503866	0.20334014
53	0x3e125c57	0.14293037
54	0xbfb466cc	-1.4093871
55	0xbf6a6de2	-0.9157392
56	0x3e0577e8	0.13034022
57	0xbea5c9fd	-0.32380667
58	0xbe61836c	-0.2202279
59	0xbb8eb2be	-0.004354804
60	0x3ec03573	0.3754078
61	0xbf5d126e	-0.86356246
62	0x3fe0682a	1.7531788
63	0x3f026eaf	0.5095014
64	0xbe9fb52a	-0.31192905
65	0x3e010dad	0.12602873
66	0xbfa33d12	-1.2753012
67	0xbe0a6c31	-0.13517834
68	0x400d1778	2.2045574
69	0xbf28c267	-0.65921634
70	0x3ff20a3a	1.8909371
71	0xbd01e78f	-0.031714972
72	0xbfa457c3	-1.2839283
73	0xbf80ebe0	-1.0071983
74	0x3eafef9b	0.34362492
75	0xbef9d144	-0.4879247
76	0x3f45d0a7	0.77271503
77	0xbe9047bd	-0.28179732
78	0x3f832b53	1.0247597
79	0xbef621ef	-0.48072764
80	0x3dda713d	0.1066613
81	0x3e390446	0.18068036
82	0xbfae1061	-1.3598748
83	0x3fae4285	1.361405
84	0xbe9cbd9f	-0.3061342
85	0xbe3ed197	-0.1863464
86	0xbef5bc15	-0.47995058
87	0xbeed4cd6	-0.46347684
88	0xbef67c80	-0.4814186
89	0xbe44967b	-0.19198029
90	0x3f0391f9	0.5139461
91	0x3ee899f2	0.4542995
92	0xbd5f9ff0	-0.054595888
93	0x3eb5fe5a	0.35545617
94	0x3f09b3fa	0.5379025
95	0xbeea35a5	-0.45744053
96	0xbf87d9f6	-1.0613391
97	0xbf80452b	-1.0021108
98	0x3f1864cb	0.595288
99	0x3e2965a9	0.16542687
100	0xbcd7e08b	-0.026352188
101	0xbeed8303	-0.46389017
102	0xbf4fabd4	-0.81121564
103	0xbd8fe654	-0.070263535
104	0x3d01081d	0.031501878
105	0x3ef05fe1	0.4694815
106	0xbe99c312	-0.3003164
107	0x3ef22111	0.47290853
108	0xbd92c3a3	-0.07166221
109	0xbe9c2e76	-0.30504197
110	0x3dd72229	0.105045624
111	0xbb6bc9ec	-0.003597851
112	0xbf1223df	-0.57085985
113	0xbfa560f3	-1.2920212
114	0xbf9bfc59	-1.2186385
115	0x3f05c7ae	0.5225781
116	0xbe940099	-0.28906706
117	0xbea433c3	-0.3207074
118	0x3e73f087	0.23822223
119	0x3f0eef7d	0.5583418
120	0xbea58d5b	-0.32334408
121	0x3f2954dd	0.66145116
122	0xbf0649a1	-0.524561
123	0x3f32a69a	0.69785464
124	0xbd8a6a35	-0.06758539
125	0xbd357c36	-0.04430791
126	0xbd014c26	-0.03156676
127	0x3f12487f	0.5714187
128	0xbf197ae1	-0.59953123
129	0x3f058837	0.5216097
130	0xbf3ecc65	-0.7453063
131	0x3e495c9c	0.19664234
132	0xbed25c2d	-0.4108595
133	0xbfc9fcaf	-1.5780238
134	0xbf8650d1	-1.0493413
135	0xbe003579	-0.12520398
136	0xbe178753	-0.14797716
137	0xbe07c24c	-0.13257712
138	0x3c12bd02	0.008956196
139	0x3fe3a918	1.7785978
140	0xbda77f70	-0.08178604
141	0xbd344b5d	-0.044017185
142	0xbef639ed	-0.4809107
143	0x3e18869d	0.14895101
144	0x3ffe0f14	1.9848351
145	0x3e245d0f	0.16051124
146	0x3e866246	0.26246852
147	0x3ff820ca	1.9385006
148	0xbf1c5ca0	-0.61078835
149	0xbdd1fded	-0.102535106
150	0x3f99bdb5	1.2011019
151	0x3f985872	1.1901991
152	0x3fcc351c	1.5953708
153	0xbef564f5	-0.47928587
154	0x3fadb875	1.3571917
155	0xbf1139e7	-0.56728977
156	0xc005f95b	-2.0933444
157	0x3f8246a3	1.0177807
158	0xbe5533e7	-0.2082058
159	0x3e82331d	0.2542962
160	0xbe1a38e9	-0.15060772
161	0xbdcd5047	-0.10025077
162	0x3e1d625f	0.15369557
163	0xbf6d795a	-0.9276329
164	0xbf04df6a	-0.519034
165	0x3f985b0e	1.1902788
166	0x3fcb8b9a	1.5901978
167	0xbb261000	-0.0025339127
168	0xbe0c3c30	-0.13694835
169	0xbe8a71d6	-0.27039975
170	0x3f8f1b73	1.1180252
171	0xbe3bd4fe	-0.18342969
172	0x3eea9700	0.4581833
173	0xbe5d133e	-0.21589372
174	0x3f79ee46	0.976292
175	0xbe3284d3	-0.17433481
176	0x3e369ec1	0.17833997
177	0xbedaec28	-0.42758298
178	0xbe75adc0	-0.23992062
179	0x3fec51b1	1.846243
180	0x3f06b6f0	0.5262289
181	0xbf2a81cd	-0.6660431
182	0xbf4f8b89	-0.8107229
183	0xbf0b7177	-0.5447001
184	0xbdf7daa8	-0.12102252
185	0xbe88ff3e	-0.26757234
186	0xbef63963	-0.48090658
187	0xbef605ef	-0.48051402
188	0x3f833304	1.0249944
189	0x3e448087	0.19189654
190	0x3e0997e4	0.13436848
191	0xbe1f6441	-0.15565588
192	0x4003c8d6	2.059133
193	0x3fe69455	1.8014017
194	0xbea0d869	-0.31415108
195	0x3fbb3c34	1.4627748
196	0x3f1912cc	0.59794307
197	0x3fc36c04	1.5267339
198	0x3e3249c8	0.17410958
199	0x3fde26ac	1.7355552
200	0xbc7b41dc	-0.015335526
201	0x3f08ab21	0.5338612
202	0x3df45314	0.119299084
203	0x3f1f4580	0.62215424
204	0x3f7d773b	0.99010056
205	0x3f71c488	0.9444051
206	0xbf17a773	-0.5923988
207	0x3fa4cd67	1.2875184
208	0x3fdd65e0	1.7296715
209	0x3f4e1235	0.8049653
210	0x3d5c4ddb	0.053785186
211	0x3fce12ff	1.6099547
212	0x40000629	2.000376
213	0x3f547a44	0.8299906
214	0x3f565c5e	0.8373469
215	0x3f3b02ab	0.73050946
216	0x3fee9827	1.8640183
217	0x3ffd4ca1	1.978901
218	0x3ed6fbfb	0.4198912
219	0xbeec2530	-0.46122122
220	0x40238f99	2.5556395
221	0xbf1b8ae7	-0.60758823
222	0x3fe07e8f	1.7538623
223	0x3f54ba9e	0.83097255
224	0x3f9343df	1.1505088
225	0x3e2ae461	0.16688682
226	0x3e9c8d54	0.30576575
227	0xbf647557	-0.89241546
228	0x3f447e4d	0.7675522
229	0xbfab6548	-1.3390284
230	0x3f679f48	0.9047742
231	0x3fdb427f	1.7129668
232	0x3f56ab0a	0.83854735
233	0x3f6febde	0.9371928
234	0x3e196715	0.14980729
235	0xbe444edb	-0.19170706
236	0x402acbed	2.6686966
237	0x3f1cc734	0.6124146
238	0x3f6faef4	0.9362633
239	0xbe037359	-0.1283697
240	0x3f9fb308	1.2476511
241	0x3fd92926	1.6965683
242	0xbdf2ef8f	-0.118620984
243	0x4000eada	2.0143342
244	0x400d4202	2.2071538
245	0x3fc8d34d	1.5689484
246	0x3fa705f5	1.3048693
247	0x3f7062f7	0.9390101
248	0x3e48685d	0.19571061
249	0x3d86c68b	0.06580838
250	0x3d40ff8d	0.047118712
251	0x3eddd905	0.43329635
252	0x3fb0a9f3	1.3801864
253	0x3d50131e	0.05079948
254	0xbf970437	-1.1798161
255	0xbe1843ae	-0.14869568

l1.bias f4 [8]
0	0x3eeb4c09	0.45956448
1	0x3ff6cdb3	1.9281524
2	0x3f7319bb	0.94961137
3	0x3f4c4f84	0.7980883
4	0x3f0e51bd	0.5559347
5	0x3f2b8f72	0.67015755
6	0x3f34725b	0.7048699
7	0x3f61ff61	0.882803

l2.weight f4 [8, 8]
0	0xc004fcff	-2.0779417
1	0x3f7cbc07	0.98724407
2	0x3fc6bc65	1.5526243
3	0xbf2bdcfb	-0.67134064
4	0x3ea75f8c	0.32690084
5	0xbea96a0a	-0.33088714
6	0x3fe9b5e7	1.8258637
7	0xbfa74f15	-1.3071009
8	0xbca4603e	-0.020065423
9	0xbdb6908b	-0.08914288
10	0xbe875832	-0.26434475
11	0x3de855cb	0.11344489
12	0x3fe759d1	1.8074285
13	0xbe772631	-0.24135663
14	0x3b783a2a	0.0037876465
15	0x3d9953ec	0.0748671
16	0xc0058c99	-2.0867064
17	0x3fca4bca	1.5804379
18	0x3ddc851b	0.10767575
19	0x4089eca9	4.310139
20	0xbe4ff60b	-0.20308702
21	0x3fe3b6ee	1.7790201
22	0xbfa8a5c1	-1.3175584
23	0x3d03102c	0.031997845
24	0xbf0bf8fa	-0.54676783
25	0x3fe7e5e2	1.811703
26	0x3eac69c5	0.33674446
27	0xbff3edb0	-1.9056911
28	0x3d937339	0.07199711
29	0x3f493915	0.78602725
30	0xbfbb442e	-1.4630182
31	0xbe5f4065	-0.21801908
32	0x4074727a	3.819487
33	0x3f987dc1	1.1913377
34	0x405600a3	3.3437889
35	0x3fee203d	1.8603588
36	0x402d25a9	2.7054236
37	0x3f37888a	0.7169272
38	0xbf19f6aa	-0.60142004
39	0xc0366221	-2.8497393
40	0x3f33b1de	0.7019328
41	0x3c9a4083	0.01882959
42	0xc0071382	-2.1105657
43	0x3ea2b692	0.31779915
44	0x403fa68b	2.99454
45	0x401b7847	2.4292161
46	0x4005a341	2.0880892
47	0x3cb3acd1	0.021932991
48	0xbf173508	-0.59065294
49	0x3feec187	1.865281
50	0xbfde2592	-1.7355216
51	0xbf5068b4	-0.81409764
52	0xbfd79074	-1.6840959
53	0x3eab721a	0.3348549
54	0x3feb62cb	1.8389524
55	0xbead6050	-0.33862543
56	0x3e18c86d	0.14920206
57	0x3f12e247	0.5737652
58	0x40326a27	2.787729
59	0xbfa200c2	-1.2656481
60	0x3d4bea33	0.049783897
61	0xbfcf9afe	-1.6219175
62	0x3fc16d39	1.5111457
63	0x40358f19	2.836859

l2.bias f4 [8]
0	0x3cded254	0.027199902
1	0xbc220569	-0.009888985
2	0x3f4a9411	0.7913218
3	0x3f64889f	0.8927097
4	0x3e989fc5	0.29809394
5	0x3cee57cb	0.029094597
6	0x3f58bf7c	0.8466718
7	0x3f4ea26d	0.8071659

l3.weight f4 [63, 8]
0	0xbeea6feb	-0.45788512
1	0x3eb95f70	0.36205626
2	0xc0377988	-2.8667927
3	0xc082096d	-4.0636506
4	0xbd53b2fc	-0.051684365
5	0xbf33a3d4	-0.70171857
6	0xc033c500	-2.808899
7	0x3d831003	0.06399538
8	0xbeba162b	-0.36345038
9	0x3d6ac54f	0.057317074
10	0xbe8a7480	-0.27042007
11	0x3f3d9bd4	0.740659
12	0xbee6fb68	-0.45113683
13	0xbf1dcc00	-0.61639404
14	0xc08940bc	-4.289152
15	0xbfce05c5	-1.6095511
16	0xc03fe522	-2.9983602
17	0xbe9206f7	-0.2852094
18	0xc03bccd5	-2.934377
19	0xc0190a21	-2.3912432
20	0xbf7de93f	-0.9918403
21	0x3f137774	0.57604146
22	0x3f461710	0.7737894
23	0x3e090b74	0.13383275
24	0xbf9a2415	-1.2042261
25	0xbfafe712	-1.3742392
26	0xbf324ba0	-0.69646645
27	0x3c8e6f74	0.01738713
28	0xbf0af49e	-0.54279506
29	0xbf03fac7	-0.5155453
30	0xbdbd77d3	-0.0925137
31	0xbf978145	-1.1836325
32	0xc010437b	-2.2541187
33	0xc077a5c1	-3.8694918
34	0x3f919a28	1.137517
35	0x3ecfbe88	0.4057505
36	0xbe323326	-0.17402324
37	0xbed19e20	-0.40940952
38	0xbea36427	-0.31912348
39	0xc079f4ae	-3.905559
40	0xc081035c	-4.03166
41	0x3f97021e	1.1797521
42	0xbf2befe4	-0.6716292
43	0xc041752d	-3.0227768
44	0x3e5119fb	0.20420067
45	0x3f782cc1	0.9694329
46	0xc039c430	-2.9025993
47	0xbfea9e5b	-1.8329576
48	0xc08c2a1d	-4.380141
49	0x3f7b4f5c	0.9816797
50	0xbf2bdb49	-0.6713148
51	0xbe6015cb	-0.21883313
52	0xbf0a00bb	-0.53907365
53	0x3ea98eb2	0.3311668
54	0xbec3d630	-0.3824935
55	0xbf45740f	-0.77130216
56	0xc083c06a	-4.117238
57	0x3f8f71ed	1.1206642
58	0x3eb0ade2	0.34507662
59	0xc065bb16	-3.5895438
60	0xbf627144	-0.8845408
61	0x3f59e3bf	0.8511314
62	0xbfc7d263	-1.561108
63	0xbf018d10	-0.5060587
64	0xc00d2cc8	-2.2058582
65	0x3ec60f57	0.38683578
66	0x3e8266cd	0.25469056
67	0x3efadcb0	0.48996496
68	0xbfda193e	-1.7038953
69	0xbe004905	-0.12527855
70	0xbba9ec1f	-0.0051856185
71	0xbf52692d	-0.82191736
72	0xc07237ba	-3.7846513
73	0x3f62eb8c	0.88640666
74	0x3ecce66f	0.40019557
75	0xbe4a0371	-0.19727875
76	0x3ef8ae3d	0.48570433
77	0x3ea3d65e	0.31999487
78	0xc0425775	-3.036588
79	0xc07b95ab	-3.93101
80	0xc01ffd68	-2.4998417
81	0xc001fdd3	-2.0311172
82	0x3ef0ffbe	0.47070116
83	0xbf36dcfd	-0.7143095
84	0xbedc9666	-0.43083495
85	0x3e5441cd	0.20728226
86	0x3e29899d	0.16556402
87	0xc01607bc	-2.344222
88	0x3e944ca2	0.28964716
89	0xc04c6ced	-3.1941483
90	0xbe994573	-0.29935798
91	0x3ed25459	0.41079977
92	0xc03b6dc2	-2.928574
93	0x3d550e9a	0.05201588
94	0x3f265a93	0.64981955
95	0xbf557344	-0.83379006
96	0xbf91dddc	-1.1395831
97	0xbe229fa1	-0.15881206
98	0xbd9925a6	-0.07477884
99	0xc05f8164	-3.4922724
100	0xbf4ad0c3	-0.79224795
101	0x3d9415ac	0.07230696
102	0xbe902c74	-0.28158915
103	0xbfd215d4	-1.6412911
104	0xbf670c32	-0.90252984
105	0xc02fbfb8	-2.7460766
106	0xc0688692	-3.6332135
107	0xc03a8484	-2.914338
108	0x3d7e9ef5	0.062163312
109	0xbefdb51e	-0.49552244
110	0xbea910ad	-0.33020535
111	0x3d9fb8f9	0.077989526
112	0x3f3bfd69	0.7343355
113	0xbef21023	-0.47277936
114	0xc029bbcb	-2.652087
115	0xc05dda0e	-3.466434
116	0xc04e8064	-3.2265863
117	0x3e0d94b7	0.13826261
118	0x3f187fc9	0.59569985
119	0x3ed0c9b5	0.4077889
120	0xc06de25e	-3.7169414
121	0xbf24e03f	-0.6440467
122	0xbfb31170	-1.3989697
123	0x3dcec0f2	0.10095395
124	0x3e71d9c6	0.2361823
125	0xbf179f80	-0.5922775
126	0xbf441466	-0.76593626
127	0xbe7699d0	-0.24082112
128	0xc08f4ac9	-4.477879
129	0xbd654a86	-0.055979274
130	0x3c95e4af	0.018297521
131	0xbe8fe10b	-0.28101382
132	0x3e9e9d90	0.30979586
133	0xbe21b637	-0.15792166
134	0xc062ae43	-3.541886
135	0xbee94853	-0.45562991
136	0xc03cfdf8	-2.953001
137	0xbf972ad7	-1.1809949
138	0x3f71b213	0.94412345
139	0xc004ce40	-2.0750885
140	0xbf1c5df1	-0.61080843
141	0x3e68218d	0.22669049
142	0xc07840fe	-3.8789668
143	0xbe55b249	-0.20868792
144	0xbec20bc9	-0.37899616
145	0xbfc007c4	-1.500237
146	0xc026222d	-2.595836
147	0xbf91a981	-1.1379853
148	0x3ebb7fe8	0.36621022
149	0xc00621a8	-2.0958042
150	0xc08cd257	-4.4006763
151	0x3ee48837	0.44635174
152	0xbefbe424	-0.49197495
153	0x3e459362	0.19294503
154	0xbf2c6f46	-0.6735729
155	0xbe8ac4f8	-0.271034
156	0xbf4bc0f2	-0.79591286
157	0xbda54a80	-0.0807085
158	0xbe7a5d23	-0.24449591
159	0xc041bb24	-3.0270472
160	0xc06118c9	-3.5171378
161	0x3f1f9167	0.6233124
162	0xc0282444	-2.6272135
163	0xc021ef3a	-2.5302262
164	0x3df56c33	0.11983528
165	0xbd7d061e	-0.061773412
166	0xc02e464b	-2.7230403
167	0x3f5162f0	0.8179159
168	0xc06c83c4	-3.6955423
169	0xbf9ebec9	-1.2401973
170	0x3efa4466	0.4888031
171	0xbfe0708b	-1.7534345
172	0xbf8e4fbd	-1.1118084
173	0x3ecc7589	0.39933422
174	0x3f079e11	0.52975565
175	0xbef35d28	-0.4753201
176	0xc088a0cf	-4.26963
177	0x3f955ed7	1.1669568
178	0xbec86b0b	-0.39144167
179	0xc07d14db	-3.954398
180	0x3ead8982	0.33893973
181	0x3d4f621f	0.050630685
182	0xc04fe6bb	-3.2484577
183	0xbc09eade	-0.008417813
184	0xbe8ae5f7	-0.27128574
185	0xc0258dcf	-2.5867803
186	0xbf31139c	-0.69170547
187	0x3e854af9	0.26033762
188	0x3dfec5d5	0.12440077
189	0xc0024d92	-2.0359845
190	0xbf164bcb	-0.587094
191	0xbf9563e8	-1.1671114
192	0xc000ddef	-2.0135458
193	0x3efb4318	0.49074626
194	0xc05c8f6a	-3.4462533
195	0xbfd0b0b6	-1.6303928
196	0xbe383dac	-0.17992276
197	0x3d03aaad	0.03214519
198	0xbc8b0fec	-0.016975366
199	0xbf471fb3	-0.77782744
200	0xbf68ed78	-0.9098735
201	0x3e728cce	0.23686525
202	0xbf12bf40	-0.57323074
203	0xbfc9f5e2	-1.5778162
204	0xbff3bdef	-1.9042338
205	0x3cddd78f	0.027080325
206	0x3e9289c5	0.28620735
207	0xbf09a114	-0.5376141
208	0xc05bfc9a	-3.4372926
209	0xbfdf53c1	-1.7447435
210	0x3efc03dc	0.49221694
211	0xc03c0f83	-2.9384468
212	0x3ebd53cd	0.36977997
213	0x3e853b9c	0.2602204
214	0xbfe4b6c9	-1.7868282
215	0xbfb0aee4	-1.3803372
216	0x3e8c1da0	0.27366352
217	0xbf8b2f33	-1.0873779
218	0xc00e5198	-2.22373
219	0xbf4acdd7	-0.79220337
220	0xbf2ffc80	-0.6874466
221	0xbfbf5742	-1.4948504
222	0xbdd04936	-0.10170214
223	0xbeab3925	-0.33442035
224	0xc069b41d	-3.6516182
225	0x3ec87ff7	0.3916013
226	0x3f478fb2	0.77953637
227	0x3dabf4f9	0.08396334
228	0xbf33797a	-0.70107234
229	0x3e69ab23	0.2281919
230	0xc0178bab	-2.3678997
231	0xbf9114d7	-1.1334485
232	0x3f2c8735	0.6739381
233	0xc023a0f0	-2.5566978
234	0xbfd64503	-1.6739811
235	0xbf80657c	-1.003097
236	0xbfe2f083	-1.7729648
237	0xbf1a6206	-0.6030582
238	0x3f3f42c2	0.7471124
239	0xbf03646c	-0.51325107
240	0xbfd8ef8a	-1.6948102
241	0xbf7e5d2a	-0.9936091
242	0xbf5f6ceb	-0.8727557
243	0xbfbdb16a	-1.4819767
244	0xbd57caa6	-0.052683495
245	0xbf32202a	-0.6958033
246	0xc062ecb0	-3.5456963
247	0x3e0506da	0.12990895
248	0xc067f02d	-3.6240342
249	0xc058c7a0	-3.3871841
250	0x3db79f9b	0.08965989
251	0xc0039f1d	-2.0565865
252	0x3f81c66f	1.0138682
253	0xbf0c9934	-0.5492127
254	0xc044a72e	-3.0727038
255	0xbf2521da	-0.6450478

l3.bias f4 [63]
0	0xbb1ea085	-0.0024204564
1	0xbe8d8e42	-0.27647597
2	0xbe9beca1	-0.3045397
3	0xbf0d5e5e	-0.5522212
4	0xbe625994	-0.22104484
5	0xbb23384e	-0.0024905386
6	0xbd4e6b1f	-0.050395127
7	0x3e7f5f32	0.24938658
8	0xbea71fc7	-0.32641432
9	0x3e0db96c	0.13840264
10	0xbe121798	-0.14266813
11	0xbf331ceb	-0.69966
12	0xbe666b44	-0.22501856
13	0x3d2a7e7e	0.04162454
14	0x3db7408e	0.0894786
15	0xbeb2542a	-0.34829837
16	0xbefa1199	-0.4884155
17	0x3d398188	0.045289546
18	0xbc75d517	-0.015004418
19	0xbf0a2694	-0.53965116
20	0xbdc9b58f	-0.09849083
21	0xbf2b2a03	-0.6686098
22	0x3b80bc1e	0.0039286753
23	0xbf6951c2	-0.9114038
24	0xbd0e3922	-0.034722455
25	0xbea2bdb3	-0.31785354
26	0xbe5b5a13	-0.2142108
27	0xbede8428	-0.43460202
28	0xbe98c125	-0.29834858
29	0xbed8c23c	-0.4233569
30	0xbcb7d1f6	-0.022438984
31	0xbc8af78f	-0.016963748
32	0xbf246a3c	-0.642246
33	0xbe9284e2	-0.28617007
34	0xbf0e21f4	-0.5552056
35	0xbeb54479	-0.35403803
36	0x3e0bf12d	0.1366622
37	0xbd606e10	-0.054792464
38	0xbf1eaa57	-0.6197867
39	0xbea5b973	-0.3236805
40	0x3eb388cb	0.35065302
41	0xbecbb69b	-0.39787754
42	0xbf26a21b	-0.65091103
43	0xbf616ac8	-0.8805356
44	0x3e84e038	0.25952315
45	0xbe55cebf	-0.20879649
46	0x3ef9ead4	0.48811972
47	0x3f006ea1	0.50168806
48	0xbd3686cb	-0.044562142
49	0xbc882f0a	-0.016623992
50	0xbda450e4	-0.08023241
51	0xbf314d50	-0.69258595
52	0xbe0786dd	-0.1323504
53	0xbeef75a6	-0.46769446
54	0xbeaf8949	-0.34284428
55	0xbeeac508	-0.45853448
56	0x3f1219b0	0.57070446
57	0xbfa0ab4e	-1.2552278
58	0x3ef1b559	0.4720867
59	0x3e69a3c2	0.22816375
60	0x3e973816	0.29534978
61	0xbe2a418e	-0.1662657
62	0x3e759caa	0.23985544
