data.pth (torch, 5279 bytes, 6 tensors)

l1.weight f4 [8, 54]
0	0x3ef73ebc	0.4829005
1	0x3e7d0a1f	0.24710892
2	0xbe2b628c	-0.16736811
3	0xbe19d328	-0.15021956
4	0xbe92fcc9	-0.28708485
5	0xbeb4837b	-0.35256562
6	0x3e116aa5	0.14200838
7	0xbc572fc1	-0.013133944
8	0x3e5d46bc	0.21609014
9	0xbb42b0df	-0.0029707474
10	0xbe3dea6a	-0.18546453
11	0x3f1863de	0.59527385
12	0x3f012341	0.5044442
13	0x3f30baf9	0.690353
14	0x3e50f43b	0.20405667
15	0x3eef6c4f	0.4676232
16	0xbe2b1b7d	-0.16709705
17	0xbeb475b9	-0.35246065
18	0x3e981b3f	0.29708287
19	0xbeb477d5	-0.35247675
20	0x3ef4256b	0.47684798
21	0xbeb4773e	-0.35247225
22	0xbeb47723	-0.35247144
23	0xbe995b72	-0.2995258
24	0x3eb9d211	0.3629308
25	0xbe53fb38	-0.20701301
26	0x3f1cdc86	0.6127399
27	0xbe8073e3	-0.25088415
28	0x3f504014	0.81347775
29	0xbe5e7595	-0.21724541
30	0xbe0b75a9	-0.13619103
31	0x3f4cf3c3	0.8005945
32	0x3ecdb48a	0.40176803
33	0x3d5b0ddb	0.05348001
34	0x3e24510e	0.16046545
35	0x3e75c876	0.24002251
36	0x3f48849c	0.78327346
37	0x3e832c96	0.25619954
38	0x3e0f9c10	0.14024377
39	0xbda4582f	-0.08024632
40	0xbe11d7a1	-0.14242412
41	0x3f209e21	0.62741286
42	0x3f2814c2	0.65656674
43	0x3e2a82bd	0.16651435
44	0x3deeadca	0.116542414
45	0x3d4f95b9	0.050679896
46	0x3f51396e	0.81728256
47	0x3eab4666	0.33452147
48	0x3c1a4476	0.009415736
49	0x3f14a4cd	0.58063966
50	0x3ee33f36	0.44384164
51	0x3f0ac57f	0.54207605
52	0x3d012d09	0.03153709
53	0x3e6fd25d	0.23420091
54	0x3eafb518	0.3431785
55	0x3e7cc755	0.24685414
56	0xbe10bc1c	-0.14134258
57	0x3e33d178	0.17560375
58	0x3f1d3f0d	0.6142433
59	0xbecf44de	-0.4048223
60	0x3d0af45e	0.033924453
61	0xbd9a9894	-0.07548633
62	0xbe5b2ad8	-0.21403062
63	0xbe042eb5	-0.12908442
64	0x3f197b12	0.59953415
65	0xbea6286e	-0.3245272
66	0x3e9ac710	0.30229998
67	0xbe247f44	-0.16064173
68	0x3e84492e	0.25837082
69	0xbe5a6bff	-0.2133026
70	0x3f118cf6	0.56855714
71	0xbec53224	-0.38514817
72	0x3ee3b503	0.44474038
73	0x3f5f3b2e	0.87199676
74	0x3e71597a	0.23569289
75	0x3f4ddd5b	0.80415887
76	0x3f2d1cb3	0.67621917
77	0x3eba55e6	0.3639366
78	0x3dbd175f	0.09232973
79	0x3eb53c3d	0.3539752
80	0x3f29c76f	0.66319937
81	0x3e8af1a5	0.27137485
82	0x3e764b13	0.24052076
83	0x3d406829	0.046974335
84	0xbe83229d	-0.25612345
85	0xbea8d1c3	-0.32972535
86	0x3e4a955f	0.19783543
87	0xbe80da1e	-0.2516641
88	0x3ec25c08	0.3796084
89	0xbe489d51	-0.19591261
90	0x3eb956cd	0.36199036
91	0xbe41b0dc	-0.18915123
92	0xbbe63fd6	-0.007026653
93	0x3dff876c	0.124770015
94	0xbe86d780	-0.26336288
95	0x3ea890f0	0.3292308
96	0xbe2d8758	-0.16946161
97	0x3e8e79d6	0.27827328
98	0xbe97ca12	-0.29646355
99	0x3e447b0f	0.19187568
100	0x3f05862e	0.52157867
101	0x3e97a6a1	0.29619315
102	0x3ee8ced1	0.45470288
103	0x3efb527a	0.49086362
104	0xbd6dac05	-0.05802538
105	0x3ee6f813	0.4511114
106	0x3e77672d	0.24160452
107	0x3e3ebf21	0.18627597
108	0xbe2b713b	-0.16742413
109	0x3efab35a	0.4896496
110	0xbd24e1d1	-0.040254418
111	0x3f117b38	0.5682864
112	0x3f10b70c	0.5652931
113	0xbef4fa0f	-0.4784703
114	0x3e80b298	0.25136256
115	0x3dda6260	0.10663295
116	0x3b8f567f	0.004374325
117	0x3e82f558	0.25577807
118	0x3f01ea97	0.5074858
119	0xbe4bf21f	-0.1991658
120	0x3f0ea16c	0.5571506
121	0xbea508a6	-0.3223316
122	0x3ebbb888	0.36664224
123	0xbea6c794	-0.3257414
124	0x3ece4e96	0.4029433
125	0xbe975d7c	-0.2956351
126	0x3e9ad1eb	0.3023828
127	0x3ed8a4f9	0.42313364
128	0xbe69b5e7	-0.22823296
129	0x3eddb2b0	0.4330039
130	0x3f5ca41a	0.861879
131	0x3eea7d1b	0.45798573
132	0xbc8e4c2f	-0.017370312
133	0x3f0f9c9c	0.5609834
134	0x3e949d0a	0.2902606
135	0x3f271223	0.6526205
136	0x3e45a43f	0.19300936
137	0x3f01600d	0.50537187
138	0xbe80774d	-0.2509102
139	0xbea53f09	-0.32274655
140	0xbdf044c5	-0.11731867
141	0xbe11a7fc	-0.14224237
142	0x3f0a273e	0.5396613
143	0xbe59a134	-0.212529
144	0x3eab354a	0.33439094
145	0xbde34acc	-0.11098251
146	0x3dac6039	0.084167905
147	0x3e850b67	0.25985262
148	0xbe439cda	-0.19102803
149	0x3ed38a16	0.4131629
150	0xbe3e60a9	-0.1859156
151	0x3f00451f	0.5010547
152	0xbe728a99	-0.23685683
153	0x3f1addaa	0.6049448
154	0xbf510241	-0.81644064
155	0xbda17a09	-0.078846045
156	0x3f06a76a	0.52599204
157	0x3ee5763f	0.44816777
158	0xbed159d1	-0.40888837
159	0x3eeb7c6f	0.45993373
160	0x3e9a1321	0.3009272
161	0x3e6c093c	0.23050398
162	0x3f2866db	0.65781945
163	0x3d0dcfd4	0.03462203
164	0xbe3f66e6	-0.18691596
165	0x3c48001f	0.01220706
166	0x3e3a5460	0.18196249
167	0x3f27b357	0.65508026
168	0xbe0ca577	-0.13734995
169	0xbea86d17	-0.3289573
170	0xbe7571d5	-0.23969205
171	0xbe297230	-0.16547465
172	0x3e0a06e0	0.13479185
173	0x3ecf431b	0.40480885
174	0xbbb83343	-0.0056213452
175	0x3ef2a250	0.4738946
176	0xbe9f775c	-0.3114575
177	0x3eca43af	0.39504763
178	0x3dd8e642	0.10590793
179	0x3f26ebd0	0.6520357
180	0xbd739af9	-0.059473965
181	0xbd72588a	-0.05916647
182	0x3f054882	0.52063763
183	0x3c8dcabb	0.017308583
184	0x3df180f3	0.11792173
185	0x3ea41094	0.32043898
186	0x3ec2b080	0.38025284
187	0x3db9409c	0.090455264
188	0x3e7eb951	0.2487538
189	0xbeeecbeb	-0.46639952
190	0x3e24c91c	0.16092342
191	0xbed627e3	-0.41827306
192	0x3e9ce6a7	0.30644724
193	0x3ec514d4	0.38492453
194	0x3e8278be	0.25482744
195	0xbe2af5d8	-0.16695344
196	0xbe0b116e	-0.13580868
197	0x3e62a5bd	0.22133537
198	0x3d9479f3	0.072498225
199	0xbe7a03d8	-0.24415529
200	0xbcc8a5da	-0.024493147
201	0xbdc8e7ea	-0.09809859
202	0x3ecf3c9f	0.40475938
203	0xbd039a66	-0.032129668
204	0x3e82cbee	0.2554621
205	0xbd8ff9f3	-0.07030096
206	0x3eaaed50	0.3338418
207	0xbe8db1e1	-0.27674773
208	0x3f4c7429	0.79864746
209	0x3edd6ad7	0.43245575
210	0x3e54fc51	0.20799376
211	0x3cf5063e	0.029910203
212	0x3eb1062f	0.3457503
213	0xbc0b659e	-0.008508114
214	0xbe5a05c7	-0.21291266
215	0x3d7b59ca	0.061364926
216	0x3ef5d873	0.480167
217	0x3e9cd61d	0.30632105
218	0xbe012e9b	-0.12615435
219	0xbe9a7be0	-0.30172634
220	0x3e1c81f0	0.15283942
221	0xbea9aaea	-0.3313821
222	0x3e2a9d25	0.16661508
223	0xbdae1389	-0.0849982
224	0x3b166b19	0.0022952019
225	0xbdbba05f	-0.09161448
226	0xbe1c79c6	-0.15280828
227	0x3f16fcb8	0.5897937
228	0x3f0c5dc3	0.5483057
229	0x3f657a87	0.89640087
230	0x3e8ebc77	0.27878162
231	0x3e3d93b2	0.18513373
232	0xbe36c2e3	-0.17847781
233	0xbea99d8b	-0.33128008
234	0x3eb143a0	0.34621906
235	0xbe9193d6	-0.28433102
236	0x3f025d4d	0.50923616
237	0xbe962f5a	-0.29333
238	0xbeaa4201	-0.33253482
239	0xbbd6d499	-0.0065561053
240	0x3e316772	0.17324618
241	0xbea0cf22	-0.3140803
242	0x3f02824a	0.50980055
243	0x3e9a76ff	0.30168912
244	0x3eeac3d0	0.45852518
245	0x3e2ffb55	0.1718572
246	0xbe95b054	-0.2923609
247	0x3f42579b	0.75914925
248	0x3e429d7f	0.19005392
249	0xbdb20acc	-0.086934656
250	0x3ee4d55d	0.44694033
251	0x3ea99f7d	0.33129492
252	0x3e917d1a	0.28415757
253	0xbcd7ce66	-0.026343536
254	0x3e09b591	0.13448168
255	0x3dcf607d	0.101258256

l1.bias f4 [8]
0	0x3eb480c7	0.352545
1	0x3f17a64b	0.5923812
2	0x3f1c8b07	0.6114964
3	0x3f4b5f30	0.7944212
4	0x3ea99853	0.33124027
5	0x3f053e9f	0.5204868
6	0x3ecc0302	0.39846045
7	0x3f3e9707	0.744492

l2.weight f4 [8, 8]
0	0xbe444576	-0.19167122
1	0x3f1b5eb3	0.60691375
2	0x3f0f188c	0.5589683
3	0xbf5d03b0	-0.8633375
4	0x3f7a2099	0.9770599
5	0x3f5ff25e	0.874792
6	0x3f1c591a	0.6107346
7	0x3ef16835	0.47149816
8	0x3f242ba8	0.64129114
9	0xbe218e6a	-0.15776983
10	0xbf8c930f	-1.0982379
11	0x3fab4a7f	1.3382109
12	0xbd4b9079	-0.049698327
13	0xbf4f67d6	-0.81017816
14	0x3ea38a8f	0.3194165
15	0x3f7096ac	0.9397991
16	0x3f426a8f	0.75943846
17	0x3f6ea730	0.9322386
18	0x3c30ec11	0.01079847
19	0x3f784b3f	0.96989816
20	0x3f749d69	0.9555269
21	0xbf068c7a	-0.525581
22	0x3d9aa671	0.075512774
23	0xbf74c547	-0.9561352
24	0x3fc2579d	1.5182987
25	0xbd7013a5	-0.058612484
26	0xbea38005	-0.3193361
27	0x3f6142f1	0.8799277
28	0x3ebbd8f4	0.3668896
29	0xbeae504e	-0.34045643
30	0x3f7594e7	0.9593033
31	0x3eb13f64	0.34618676
32	0xbf9658a0	-1.1745796
33	0x3f75c939	0.96010166
34	0x3faf7230	1.3706722
35	0x3e201c48	0.15635788
36	0xbf3178cb	-0.6932494
37	0x3f8b6117	1.0889004
38	0x3e9fe15c	0.31226623
39	0x3fb28367	1.3946351
40	0x3f7af402	0.98028576
41	0x3f95825f	1.1680411
42	0x3f7dba2d	0.99112207
43	0x3ef9f497	0.4881942
44	0x3f57571d	0.841173
45	0xbdb31b98	-0.087454975
46	0xbfa38f7f	-1.2778167
47	0xbf35c190	-0.7099848
48	0x3f9f97d8	1.2468214
49	0xbd839bbb	-0.064261876
50	0x3f0f3a8b	0.55948704
51	0xbf7e95c9	-0.99447304
52	0x3f15ac39	0.58465916
53	0x3f4cdd6c	0.8002536
54	0xbe440864	-0.19143826
55	0x3eeb755b	0.45987973
56	0xbe810ea6	-0.25206488
57	0x3e4f7928	0.20261061
58	0xbb13bbff	-0.0022542474
59	0x3d436e5e	0.047712676
60	0xbe2cde2e	-0.1688163
61	0xbe400180	-0.18750572
62	0x3e7f500e	0.24932882
63	0xbded3cf7	-0.11583894

l2.bias f4 [8]
0	0xbea7c6ed	-0.32768956
1	0x3f0f3be4	0.5595076
2	0x3e8e5386	0.27798098
3	0xbdeb27fa	-0.11482234
4	0x3f72142a	0.9456202
5	0x3f17cb1a	0.59294283
6	0xbf05a660	-0.52206993
7	0xbec9dcc2	-0.39426237

l3.weight f4 [7, 8]
0	0xbe67aa78	-0.22623622
1	0x3ebac7aa	0.36480457
2	0x3ecec2f2	0.40383106
3	0x3f314ae5	0.69254905
4	0xbf58b7a2	-0.846552
5	0xbf993fee	-1.1972635
6	0xbe8f5dcc	-0.2800125
7	0xbdbd2c99	-0.09237022
8	0x3e59abc7	0.21256934
9	0xbf871ead	-1.0556237
10	0xbf928551	-1.1446935
11	0xbfc7a575	-1.5597368
12	0x3e37ebc5	0.17961033
13	0x3db1484a	0.08656366
14	0x3f9755d2	1.1823065
15	0xbe16d3b0	-0.1472919
16	0xbf60c052	-0.8779346
17	0x3f46a7d4	0.77599835
18	0xbf24cc13	-0.6437389
19	0x3e89551c	0.26822746
20	0x3f04aaa2	0.51822865
21	0xbf857ec6	-1.0429313
22	0xbfc8e816	-1.5695827
23	0x3e2b4d85	0.1672879
24	0xbe5893e1	-0.21150161
25	0xbf9d2813	-1.2277855
26	0x3e6f44ee	0.23366138
27	0xbf7cbe3b	-0.9872777
28	0x3f5a8379	0.8535686
29	0x3ed7c935	0.42145696
30	0xbfc18c72	-1.5120986
31	0xbd548456	-0.051884018
32	0xbdfb0c93	-0.12258258
33	0xbfb02233	-1.3760437
34	0x3ef83a13	0.48481807
35	0xbda8c8be	-0.082414135
36	0xbf03ec90	-0.5153284
37	0x3eb43c3b	0.35202202
38	0x3ec32a2d	0.38118115
39	0xbe8831df	-0.2660055
40	0x3ebe450e	0.3716206
41	0xbf941502	-1.1568911
42	0xbf8cb9e1	-1.0994226
43	0x3ee24e38	0.442003
44	0x3ed8fb33	0.4237915
45	0xbf9a6819	-1.2063018
46	0x3e94973f	0.29021642
47	0x3e8e542e	0.277986
48	0xbf37fe0e	-0.7187203
49	0x3e48097a	0.19534865
50	0x3f354915	0.7081464
51	0x3e4d18af	0.20028947
52	0xbf7b76fb	-0.98228425
53	0x3ee404be	0.44534868
54	0xbfa82490	-1.3136158
55	0xbc4c3157	-0.012462935

l3.bias f4 [7]
0	0xbed0f1e1	-0.4080954
1	0xbea39f96	-0.31957692
2	0x3edaae8e	0.427113
3	0x3f24ee6e	0.64426315
4	0xbe7c459a	-0.24635926
5	0xbd7aad9c	-0.061200723
6	0xbe679d1b	-0.22618525
